data.pth (torch, 5079 bytes, 6 tensors)

l1.weight f4 [8, 55]
0.6394332 -0.26437533 0.7072913 -0.20356217 0.03652288 -0.050619915 0.49233758 0.47686175
0.6693436 0.51416165 -0.1778184 0.6669872 0.67933106 0.64589965 -0.0035750961 0.25857446
-0.2945912 -0.12862861 0.54694754 -0.4723048 0.35592976 -0.47239023 -0.47231832 -0.03998542
-0.47233886 0.47221568 -0.27221054 0.69798136 -0.5618885 0.5382078 -0.5535801 -0.20548533
0.72582746 0.4889266 0.59963703 -0.22161163 0.26801446 0.5531564 0.5986477 0.5457114
0.37104645 -0.19565861 0.6160546 0.5719316 -0.14813858 0.7140799 -0.099212036 1.1861981
0.38450605 0.0035624031 0.8748714 0.2519718 0.49237025 0.47415644 0.43871212 0.36782932
0.052249547 -0.27594087 -0.23058419 -0.14152393 0.61682653 -0.021064365 -0.16605823 -0.12608142
-0.23030923 -0.2030369 -0.19287625 0.10477723 -0.09799418 -0.0014055523 -0.043639354 -0.16535294
0.77432626 0.34486237 -0.3593413 0.43681386 -0.3395244 -0.32995746 -0.62416816 -0.43166336
-0.07410886 -0.18428501 0.61316407 -0.4193808 0.4916945 -0.52569467 0.44967154 -0.06002906
0.313848 -0.23806202 -0.19184418 -0.13534234 0.53903174 -0.10619555 0.08619975 -0.121289216
0.30529258 0.33578664 -0.036020882 -0.058869865 -0.1474478 -0.17988206 0.8248354 0.2121746
0.14800662 0.59406346 -0.10080232 0.46066302 0.012010518 0.40389103 0.005047694 -0.0033446997
-0.10829438 -0.10691528 -0.0052884966 -0.09187438 0.022819087 0.00053189695 0.0053331554 0.08689973
0.07602318 -0.05489079 -0.104176775 -0.06279578 0.044481624 0.04588601 0.066901654 -0.10092654
0.08371948 0.00015370548 0.07558586 -0.04486431 -0.05060889 0.010586262 0.020391703 -0.08179253
-0.06889919 -0.018397182 -0.08665931 -0.1110987 -0.092433736 0.11570977 -0.00343737 -0.13468282
0.09469767 0.10621284 0.06804517 -0.08433153 0.11075109 -0.1205082 -0.056644127 -0.056939542
0.0056488216 0.06037578 -0.05812836 0.008224323 0.03298061 0.007829249 -0.13059416 0.094728515
-0.09314408 -0.08983761 -0.12256672 0.10038462 -0.122451775 -0.42270023 -0.26665708 -0.43542704
0.3320473 0.33036235 0.5802695 -0.3830577 -0.4190803 -0.65682584 -0.49242648 0.45727566
0.545301 0.2093229 0.5296151 -0.18164483 0.37994188 0.3928957 0.4906123 0.6233459
0.47057676 -0.19552083 0.47428855 0.5659985 0.7681156 0.5733759 0.41323397 0.47586885
0.54320186 -0.46087113 0.2998402 -0.43773237 0.42250985 0.55619127 -0.12049422 -0.5297091
-0.3855838 0.44351935 0.4894514 -0.49660012 -0.24348861 -0.20096686 0.6232618 0.59263206
0.28337604 -0.33960542 0.24834014 -0.12584937 -1.0324693 -0.414385 0.4063579 0.7684611
0.41442817 0.40856937 -0.39451912 0.04327407 0.44293466 -0.31333932 -0.42651367 -0.35736758
-0.051198263 0.45105687 -0.1799428 -0.32280263 -0.123612545 -0.35882095 -0.16350567 -0.02367278
0.43820107 0.06872922 -0.023303641 -0.22224243 -0.105453916 0.28124374 0.3390021 -0.26877713
0.28086394 -0.2688232 -0.2688443 -0.45355824 -0.26877978 -0.02062096 -0.15345691 0.73596823
-0.2681574 0.4848336 -0.36154616 0.05814556 -0.057961278 0.2741613 -0.41257283 -0.1530674
00000000: e5b1 233f 345c 87be 0b11 353f 9a72 50be
00000010: 0499 153d d456 4fbd ac13 fc3e 3927 f43e
00000020: 1a5a 2b3f 19a0 033f 0716 36be acbf 2a3f
00000030: a4e8 2d3f ae59 253f 294c 6abb df63 843e
00000040: a8d4 96be 38b7 03be c104 0c3f efd1 f1be
00000050: 6d3c b63e 22dd f1be b5d3 f1be c0c7 23bd
00000060: 66d6 f1be 41c6 f13e 2e5f 8bbe e8ae 323f
00000070: edd7 0fbf fdc7 093f 6db7 0dbf bf6a 52be
00000080: d4cf 393f 9654 fa3e d081 193f 29ee 62be
00000090: 3139 893e a89b 0d3f fa40 193f beb3 0b3f
000000a0: cdf9 bd3e bb5a 48be c1b5 1d3f 1c6a 123f
000000b0: a4b1 17be f1cd 363f ae2f cbbd 57d5 973f
000000c0: fadd c43e 3577 693b 92f7 5f3f 7302 813e
000000d0: f417 fc3e a2c4 f23e e09e e03e 2054 bc3e
000000e0: 9f03 563d 1f48 8dbe 431e 6cbe a6eb 10be
000000f0: 58e8 1d3f 2d8f acbc 2b0b 2abe 7d1b 01be
00000100: 2fd6 6bbe e8e8 4fbe 5a81 45be 7295 d63d
00000110: 2cb1 c8bd 823a b8ba 2ebf 32bd 4852 29be
00000120: 3f3a 463f cd91 b03e 95fb b7be 11a6 df3e
00000130: 24d6 adbe 2ff0 a8be 7cc9 1fbf fb02 ddbe
00000140: 63c6 97bd 36b5 3cbe 52f8 1c3f 15b9 d6be
00000150: 62bf fb3e ed93 06bf 593b e63e 08e1 75bd
00000160: afb0 a03e 88c6 73be cd72 44be 2f97 0abe
00000170: fcfd 093f 0d7d d9bd 7f89 b03d 7b66 f8bd
00000180: 4f4f 9c3e 3aec ab3e a28a 13bd 8721 71bd
00000190: 8efc 16be 0133 38be 6a28 533f 4c44 593e
000001a0: 0c8f 173e 8b14 183f 7271 cebd 06dc eb3e
000001b0: c4c7 443c ceca ce3e 2067 a53b c032 5bbb
000001c0: 72c9 ddbd 66f6 dabd 204b adbb a328 bcbd
000001d0: 18ef ba3c 006f 0b3a c0c1 ae3b 7cf8 b13d
000001e0: 0ab2 9b3d 2ad5 60bd a25a d5bd 139b 80bd
000001f0: 5d32 363d f8f2 3b3d bc03 893d 93b2 cebd
00000200: 1e75 ab3d 002c 2139 c2cc 9a3d a4c3 37bd
00000210: 444b 4fbd 0072 2d3c 800c a73c d882 a7bd
00000220: 051b 8dbd b0b5 96bc 707a b1bd b787 e3bd
00000230: e64d bdbd 3ef9 ec3d 8045 61bb 4bea 09be
00000240: daf0 c13d 1e86 d93d 445b 8b3d 02b6 acbd
00000250: 78d1 e23d 01cd f6bd ac03 68bd 7039 69bd
00000260: c019 b93b 984c 773d 0118 6ebd 50bf 063c
00000270: ad16 073d 4046 003c 7aba 05be 0601 c23d
00000280: 53c2 bebd c8fc b7bd 4304 fbbd 7496 cd3d
00000290: ffc7 fabd 2a6c d8be 4787 88be 4bf0 debe
000002a0: 1b02 aa3e 4125 a93e 8b8c 143f 2420 c4be
000002b0: b191 d6be bd25 28bf 531f fcbe 0920 ea3e
000002c0: d998 0b3f be58 563e db94 073f 1a01 3abe
000002d0: be87 c23e a029 c93e 8931 fb3e 9993 1f3f
000002e0: 70ef f03e 9d36 48be f3d5 f23e 47e5 103f
000002f0: 39a3 443f c3c8 123f 6793 d33e 15a5 f33e
00000300: 470f 0b3f 4df7 ebbe a884 993e 751e e0be
00000310: 3653 d83e 8d62 0e3f acc5 f6bd 049b 07bf
00000320: 3d6b c5be f814 e33e 6099 fa3e 5f42 febe
00000330: 1455 79be 42ca 4dbe 168e 1f3f bcb6 173f
00000340: aa16 913e c3e0 adbe e14c 7e3e a8de 00be
00000350: f427 84bf 452a d4be 250e d03e deb9 443f
00000360: ee2f d43e 0130 d13e 69fe c9be 2740 313d
00000370: 55c8 e23e 036e a0be 0060 dabe e2f8 b6be
00000380: 45b5 51bd edf0 e63e ed42 38be 6346 a5be
00000390: 9328 fdbd 61b7 b7be 086e 27be 6bed c1bc
000003a0: e45b e03e e8c1 8c3d 47e7 bebc 8593 63be
000003b0: 39f8 d7bd 2eff 8f3e af91 ad3e 289d 89be
000003c0: 66cd 8f3e 32a3 89be f6a5 89be c938 e8be
000003d0: 819d 89be 4aed a8bc cf23 1dbe 6a68 3c3f
000003e0: ed4b 89be 1c3c f83e 941c b9be 0a2a 6e3d
000003f0: ce68 6dbd df5e 8c3e bf3c d3be b3bd 1cbe

l1.bias f4 [8]
0.47239652 0.43165627 -0.16171013 1.032464 0.2687685 0.4846449 0.747988 0.9242277
00000000: f5dd f13e 0d02 dd3e 5797 25be c827 843f
00000010: 069c 893e 6023 f83e 247c 3f3f 309a 6c3f

l2.weight f4 [8, 8]
0.2791924 0.590232 -0.24156177 1.1747926 0.7716542 0.7303845 -0.17719404 -1.0507249
-1.1022183 -0.8387821 -0.004167826 0.38385165 -0.5667997 0.68853855 0.5318744 1.1630979
0.73669225 1.2077914 0.17971322 -0.6904568 0.78771484 0.035966363 1.0689244 0.5623457
0.84482354 0.39663228 0.06827468 -1.2460471 0.13825108 0.70748675 0.39244983 0.8892192
-0.5169866 -0.8713452 0.17521295 0.90052456 -0.3700694 0.045783937 -0.43794915 0.41655064
0.8665089 -0.5567624 0.25966644 0.84905005 -0.6591141 1.1543547 -0.82571393 -0.091137424
-0.4216303 0.30130592 -0.31891006 0.26286516 -0.39484623 -0.07547482 0.51620275 1.3783262
0.34478614 1.2855573 0.1610101 1.4149038 0.8202634 -0.87220013 0.5571806 0.23970494
00000000: 4ef2 8e3e 7219 173f f85b 77be 9b5f 963f
00000010: 218b 453f 7bfa 3a3f 5b72 35be 277e 86bf
00000020: 7d15 8dbf 6cba 56bf 4292 88bb 3488 c43e
00000030: c919 11bf 1044 303f ec28 083f 64e0 943f
00000040: dd97 3c3f e998 9a3f be06 383e c7c1 30bf
00000050: aea7 493f 7751 133d 84d2 883f e3f5 0f3f
00000060: 5b46 583f 6313 cb3e 98d3 8b3d 797e 9fbf
00000070: b191 0d3e da1d 353f 2fef c83e dfa3 633f
00000080: 3c59 04bf 7b10 5fbf 066b 333e c788 663f
00000090: bd79 bdbe f087 3b3d df3a e0be 2046 d53e
000000a0: 87d3 5d3f fb87 0ebf 00f3 843e 585b 593f
000000b0: b4bb 28bf e5c1 933f fd61 53bf 42a6 babd
000000c0: eddf d7be c544 9a3e 2e48 a3be 4396 863e
000000d0: 4929 cabe 8b92 9abd dd25 043f fe6c b03f
000000e0: cf87 b03e 248d a43f d5df 243e 911b b53f
000000f0: c8fc 513f 8248 5fbf 63a3 0e3f 3675 753e

l2.bias f4 [8]
0.15470582 0.43376395 0.17100093 -0.030210067 0.1996739 0.4544239 0.6991773 0.6881721
00000000: 346b 1e3e 4f16 de3e de1a 2f3e 1a7b f7bc
00000010: 5177 4c3e 40aa e83e 49fd 323f 0c2c 303f

l3.weight f4 [7, 8]
0.44475767 -0.5945302 -0.9973255 -1.2244883 -0.024285542 0.6585617 -0.48785368 -0.30877373
-0.988676 0.73231643 0.3064969 0.22642715 -1.1628084 -0.5191024 0.5178768 -1.1759
0.095613204 -0.23395056 0.291295 -1.4167243 -1.6558491 -1.4426236 0.32143083 0.42233756
-0.43644 0.7254954 -0.99325174 -0.8430049 1.0578796 0.045891106 0.5990738 -0.18082075
0.67208236 -0.6824893 0.18541692 -0.5001513 -1.4635218 -0.50433457 -1.3706362 0.08699895
-0.18692425 -0.5316278 -0.00864997 0.47252882 -1.2333063 0.5284577 -0.074093215 -1.012905
-1.198426 -0.56343246 0.6963275 0.7644025 -0.59937876 -1.1444002 -0.15965094 -0.08119398
00000000: 47b7 e33e 2233 18bf b950 7fbf 08bc 9cbf
00000010: 79f2 c6bc 8097 283f f5c7 f9be 9717 9ebe
00000020: df19 7dbf 1779 3b3f 29ed 9c3e 85dc 673e
00000030: e8d6 94bf e5e3 04bf 9393 043f e483 96bf
00000040: dbd0 c33d bc90 6fbe 9e24 953e 3957 b5bf
00000050: ddf2 d3bf e4a7 b8bf 9592 a43e a13c d83e
00000060: 1075 dfbe 11ba 393f bf45 7ebf 2bcf 57bf
00000070: 9968 873f 50f8 3b3d e75c 193f 1329 39be
00000080: 970d 2c3f 9eb7 2ebf efdd 3d3e ea09 00bf
00000090: af54 bbbf 121c 01bf 0271 afbf 812c b23d
000000a0: 1269 3fbe c218 08bf 9bb8 0dbc 4cef f13e
000000b0: fbdc 9dbf 0149 073f 2fbe 97bd dfa6 81bf
000000c0: 0666 99bf 1c3d 10bf 8542 323f e2af 433f
000000d0: e370 19bf b57b 92bf 897b 23be 0849 a6bd

l3.bias f4 [7]
-0.55696714 -0.2633627 0.6252853 0.14322667 -0.3297914 0.37797275 -0.12895168
00000000: 6695 0ebf 7ad7 86be b312 203f 03aa 123e
00000010: 6bda a8be a585 c13e e90b 04be
